…
        "colab": {
          "base_uri": "https://localhost:8080/"
        },
        "id": "T22LSk9m5Ja6",
        "outputId": "4569810e-2776-4ed6-ee4c-9bff5e34bd58"
      },
      "outputs": [
        {
          "output_type": "stream",
          "name": "stdout",
          "text": [
            "Model: \"sequential\"\n",
            "_________________________________________________________________\n",
            " Layer (type)                Output Shape              Param #   \n",
            "=================================================================\n",
            " dense (Dense)               (None, 265)               271625    \n",
            "                                                                 \n",
            " dense_1 (Dense)             (None, 128)               34048     \n",
            "                                                                 \n",
            " dropout (Dropout)           (None, 128)               0         \n",
            "                                                                 \n",
            " dense_2 (Dense)             (None, 64)                8256      \n",
            "                                                                 \n",
            " dense_3 (Dense)             (None, 64)                4160      \n",
            "                                                                 \n",
            " dense_4 (Dense)             (None, 32)                2080      \n",
            "                                                                 \n",
            " batch_normalization (BatchN  (None, 32)               128       \n",
            " ormalization)                                                   \n",
            "                                                                 \n",
            " dense_5 (Dense)             (None, 10)                330       \n",
            "                                                                 \n",
            "=================================================================\n",
            "Total params: 320,627\n",
            "Trainable params: 320,563\n",
            "Non-trainable params: 64\n",
            "_________________________________________________________________\n"
          ]
        }
…
          "base_uri": "https://localhost:8080/"
        },
        "id": "SA4oKR5gSjLe",
        "outputId": "fc323895-0c81-4931-98f0-3b78e0cf2e24"
      },
      "outputs": [
        {
          "output_type": "stream",
          "name": "stdout",
          "text": [
            "Model: \"sequential_1\"\n",
            "_________________________________________________________________\n",
            " Layer (type)                Output Shape              Param #   \n",
            "=================================================================\n",
            " conv2d (Conv2D)             (None, 32, 32, 16)        160       \n",
            "                                                                 \n",
            " leaky_re_lu (LeakyReLU)     (None, 32, 32, 16)        0         \n",
            "                                                                 \n",
            " conv2d_1 (Conv2D)           (None, 32, 32, 32)        4640      \n",
            "                                                                 \n",
            " leaky_re_lu_1 (LeakyReLU)   (None, 32, 32, 32)        0         \n",
            "                                                                 \n",
            " max_pooling2d (MaxPooling2D  (None, 16, 16, 32)       0         \n",
            " )                                                               \n",
            "                                                                 \n",
            " flatten (Flatten)           (None, 8192)              0         \n",
            "                                                                 \n",
            " dense_6 (Dense)             (None, 32)                262176    \n",
            "                                                                 \n",
            " leaky_re_lu_2 (LeakyReLU)   (None, 32)                0         \n",
            "                                                                 \n",
            " dense_7 (Dense)             (None, 10)                330       \n",
            "                                                                 \n",
            "=================================================================\n",
            "Total params: 267,306\n",
            "Trainable params: 267,306\n",
            "Non-trainable params: 0\n",
            "_________________________________________________________________\n"
          ]
        }
…
        "colab": {
          "base_uri": "https://localhost:8080/"
        },
        "id": "BJ8MS0exkX1l",
        "outputId": "4237e8fe-e77a-4557-c33c-ed7b7924379f"
      },
      "outputs": [
        {
          "output_type": "stream",
          "name": "stdout",
          "text": [
            "Model: \"sequential\"\n",
            "_________________________________________________________________\n",
            " Layer (type)                Output Shape              Param #   \n",
            "=================================================================\n",
            " conv2d (Conv2D)             (None, 32, 32, 16)        160       \n",
            "                                                                 \n",
            " leaky_re_lu (LeakyReLU)     (None, 32, 32, 16)        0         \n",
            "                                                                 \n",
            " conv2d_1 (Conv2D)           (None, 32, 32, 32)        4640      \n",
            "                                                                 \n",
            " leaky_re_lu_1 (LeakyReLU)   (None, 32, 32, 32)        0         \n",
            "                                                                 \n",
            " max_pooling2d (MaxPooling2D  (None, 16, 16, 32)       0         \n",
            " )                                                               \n",
            "                                                                 \n",
            " batch_normalization (BatchN  (None, 16, 16, 32)       128       \n",
            " ormalization)                                                   \n",
            "                                                                 \n",
            " conv2d_2 (Conv2D)           (None, 16, 16, 32)        9248      \n",
            "                                                                 \n",
            " leaky_re_lu_2 (LeakyReLU)   (None, 16, 16, 32)        0         \n",
            "                                                                 \n",
            " conv2d_3 (Conv2D)           (None, 16, 16, 64)        18496     \n",
            "                                                                 \n",
            " leaky_re_lu_3 (LeakyReLU)   (None, 16, 16, 64)        0         \n",
            "                                                                 \n",
            " max_pooling2d_1 (MaxPooling  (None, 8, 8, 64)         0         \n",
            " 2D)                                                             \n",
            "                                                                 \n",
            " batch_normalization_1 (Batc  (None, 8, 8, 64)         256       \n",
            " hNormalization)                                                 \n",
            "                                                                 \n",
            " flatten (Flatten)           (None, 4096)              0         \n",
            "                                                                 \n",
            " dense (Dense)               (None, 32)                131104    \n",
            "                                                                 \n",
            " leaky_re_lu_4 (LeakyReLU)   (None, 32)                0         \n",
            "                                                                 \n",
            " dropout (Dropout)           (None, 32)                0         \n",
            "                                                                 \n",
            " dense_1 (Dense)             (None, 10)                330       \n",
            "                                                                 \n",
            "=================================================================\n",
            "Total params: 164,362\n",
            "Trainable params: 164,170\n",
            "Non-trainable params: 192\n",
            "_________________________________________________________________\n"
          ]
        }
…
